dqn_model.onnx (onnx, 29159 bytes, 7 tensors)

functional_4_1/sequential_1/dense_3_1/Cast/ReadVariableOp:0 f4 [32, 1]
00000000: b4f1 7a3f 9b77 003f d6ab 89be edc3 a4be
00000010: 6d08 b6be 2414 5abd ebad e3be 9c54 483f
00000020: af40 a1be e32f 98be 8d95 cf3e acc6 8fbe
00000030: 4951 7a3e 853a 053e 30bf 303f 2e18 a5be
00000040: 9aee 5e3e b4d9 bbbe 9bd4 b9be 975f cfbe
00000050: 7b7e 6dbe 01a6 0c3f af4e e2be 30be 3ebc
00000060: c2e9 58be 14b0 773f 6037 1b3f fc10 bdbe
00000070: 28f7 bb3e 3031 3fbe 782a c33e a5a6 b03e
0.9802506 0.50182503 -0.26888913 -0.3218073 -0.35553303 -0.053241864 -0.44468626 0.78254104
-0.31494662 -0.29724035 0.40543786 -0.28081262 0.2444507 0.13010605 0.6904173 -0.3224501
0.21770707 -0.36689532 -0.36295018 -0.40502617 -0.2319278 0.549408 -0.44200656 -0.011642024
-0.21182922 0.9675305 0.6063137 -0.3692702 0.36712003 -0.18671107 0.3811834 0.3450214

functional_4_1/sequential_1/dense_2_1/Cast/ReadVariableOp:0 f4 [64, 32]
00000000: 9571 333e 481d 1fbe 7d46 843c 0046 50bc
00000010: 12b2 943d e39d 64be 184f 93bd 6c2d fa3d
00000020: 69d6 d33d 2ca8 15be 1f7b 473e c40b 25be
00000030: 8bd5 06be e033 61bd aa5b 05be a1ae 28be
00000040: b8b4 c4bd 938d 01be de22 bc3c b30a 06bd
00000050: 50ae f5bd 9780 27be a6af 753e 2077 35be
00000060: fb6a 5e3e 9728 45be 731a 80be 248d 5e3e
00000070: 77cc 033e 6f22 3a3e f507 4d3e 11e2 313e
00000080: 1dda 3b3f eaca 0e3f 6143 44be 3b64 28be
00000090: 0a61 4b3e 3b2a e03d 22d5 75be 3bcc 343f
000000a0: 8168 82be 6a3a fb3c 87f8 f23e 7415 5cbe
000000b0: 55db 073e 6a4b 13bd f13a da3e b6c1 633d
000000c0: 941f b23e bdb4 8b3d 315c 9a3e ab66 f5bd
000000d0: 227d 3dbd 1737 0e3f bf59 9bbe 0876 1a3e
000000e0: ba29 78be a495 493f 63ca 103f 0e4e 383d
000000f0: 890e e33d 3cd3 94bd 7c74 453e 83ac a63e
00000100: 9522 0e3e 3de6 7e3e 1170 06be 6224 1cbe
00000110: e278 4c3e 5668 ea3d c7bd 07be e7b5 363e
00000120: cb94 f5bd 26a9 cc3c 9472 243e 5695 febd
00000130: 1591 583d bf82 21be b093 0a3d 7734 53bc
00000140: 15fb 84bb 2b0f babc 1db3 f2bd a269 963c
00000150: 03ab febd adc0 443e ff97 153d 74c8 76be
00000160: 1d64 e13d 3a74 d83e 4aa2 de3b 570d 58be
00000170: f013 28bd d34c 16be ff54 7c3e 9d54 d63e
00000180: 3ec3 64bd 8028 013e 8521 5cbc e22d db3d
00000190: 9dd0 14be 8087 9f3d 9201 663e 8af4 ddbd
000001a0: a656 e4bd c1c0 74be cb2b 593e 418e 2b3d
000001b0: e90d 47bd 08ab bb3d 7eef 38be ef70 26be
000001c0: a0ac 46bd c787 1c3d 26b5 0dbe 4d65 41be
000001d0: a71c e43c c45f 03be e37d e43d 6de6 96be
000001e0: 1d8d 2d3e b2e9 e43d 779d 0a3e c866 88be
000001f0: 3f8e f9bd 6f74 27bd 208d e93c 133a 35be
00000200: 6e2b 82be 6453 8bbd 2ed9 c9bd 644c 34be
00000210: 3bd7 f2bd 0c34 81be 1780 823e 2bb5 73be
00000220: 64fc 563e e26a 233d bdf0 0dbd b710 a93d
00000230: b8f3 103e 17b5 7fbe e97c 2abe 60fe 5c3d
00000240: 854c bc3c b81c 20bd 43b7 11be e566 8e3d
00000250: a0cf 34be c8a3 c0bd d4c5 6e3d b3d8 483e
00000260: 6a54 5dbe 7f20 61be f068 2b3e 664e 143d
00000270: 91a6 2e3e ae5b 48be d8d9 b13d b841 1ebe
00000280: a0a6 6bbd a32d 0f3e 0687 5d3d d750 51be
00000290: 18c7 22be 0bfd 5c3e 6fcf 163d ab0d 013e
000002a0: 0985 903d 3756 e6bd 6c05 b93d 4e33 00bd
000002b0: 1a99 e9bd a404 55bd caff b1bd 9f38 52be
000002c0: 5040 60be 7c0e 053e 8bcf 383e 943b d2bd
000002d0: 26b3 d9bd ac95 cc3d 7ed7 1ebc f0d4 063e
000002e0: 86d5 143e d542 c4bc 0d41 1d3e 0938 243c
000002f0: 6dbf d83d 731f 4d3e a7ac ad3d ef3b 9a3d
00000300: f506 113e f365 1a3e ea6f 13be e878 243d
00000310: baa3 2d3e f5c3 93be 2d0c 763b 24be f93d
00000320: c5c6 33bd c031 3f3e ef9c c73e b6e5 e83d
00000330: 9ade d83d 6ada 743d ff3c e23d 47a9 5dbd
00000340: 22e4 0c3f 4328 e73d 1a0e 33be 99b0 98be
00000350: 0184 4d3d 08bb 0c3f 1383 21be 4573 06be
00000360: f806 573d c52d 9e3e e749 fc3e fe06 a13b
00000370: aa4a c83e c368 0bbe d174 dc3d 3243 bc3e
00000380: fb9a 28bc 8342 6e3e 7667 5d3e d066 3fbd
00000390: c892 04be dc27 5abe 2782 883d b2fe 06be
000003a0: c7df 793e bc7a 0c3e 2907 a0bd 40db cabc
000003b0: 6c23 de3d a039 0f3d 58a4 59be e1e0 3b3e
000003c0: 3042 433a 18eb 5ebe f068 343e e0e3 d83d
000003d0: 80ca ffbd 2707 0dbe 5007 883e 1434 7abe
000003e0: 34e4 193e d494 43be 589c 8a3e 24c1 0ebe
000003f0: f5ff 56be d00e b5bd 31bb 2dbd a155 693e
0.17523797 -0.15538514 0.016146893 -0.012712002 0.07260527 -0.22325854 -0.0719282 0.12215695
0.1034363 -0.14614934 0.1948056 -0.1611777 -0.13167398 -0.054981112 -0.13023248 -0.16472866
-0.09604782 -0.12651663 0.022965845 -0.032725047 -0.11996138 -0.16357647 0.23992786 -0.17721224
0.21720497 -0.19253765 -0.2502018 0.21733528 0.12870966 0.18177198 0.20022567 0.17371394
0.7337969 0.5577837 -0.19166328 -0.16444485 0.19861236 0.10945555 -0.24007085 0.7062413
-0.25470355 0.030667502 0.47455236 -0.21492559 0.13267262 -0.035960592 0.42623094 0.05560466
0.34789717 0.068215825 0.3014846 -0.11982473 -0.046261914 0.5555281 -0.30341908 0.15084088
-0.24234667 0.7874396 0.5655882 0.044996314 0.11086757 -0.07266852 0.19282717 0.3255349
0.1388038 0.24892516 -0.13128687 -0.15248254 0.19967988 0.11445682 -0.13255988 0.17842828
-0.11991271 0.024983 0.16059333 -0.12430827 0.052872736 -0.15772532 0.033832252 -0.012890927
-0.0040582516 -0.02271231 -0.118505694 0.018360917 -0.12434962 0.19214125 0.036521908 -0.24099904
0.11005423 0.42276174 0.0067942487 -0.21098839 -0.04103464 -0.14677744 0.24641798 0.4186143
-0.05585026 0.12613106 -0.013435726 0.10702111 -0.14532705 0.077895164 0.22461537 -0.10837658
-0.111493394 -0.23901655 0.21208112 0.04188371 -0.04859725 0.09163481 -0.18060109 -0.16254018
-0.04850447 0.038215425 -0.13838634 -0.188863 0.027845694 -0.128295 0.111568235 -0.29472676
0.16948362 0.11177386 0.1353663 -0.26640916 -0.121853344 -0.040882524 0.028509676 -0.17697935
-0.2542376 -0.06803015 -0.09855877 -0.17607266 -0.11857458 -0.2523502 0.2548835 -0.23799579
0.20994717 0.039896853 -0.034653414 0.08255141 0.14155471 -0.24971424 -0.16649212 0.05395353
0.022985706 -0.03908989 -0.14230065 0.06953219 -0.17657328 -0.09406239 0.058294132 0.19613914
-0.21614233 -0.21985053 0.16739249 0.03620758 0.17055728 -0.19566223 0.086841285 -0.15454757
-0.057531953 0.13982253 0.054083847 -0.20440994 -0.1589626 0.21580903 0.036818918 0.1260287
0.070566244 -0.11246913 0.09034237 -0.031298928 -0.11406155 -0.05200638 -0.08691366 -0.20529412
-0.21899533 0.12993807 0.18047921 -0.1026527 -0.10629873 0.09989485 -0.009694932 0.13167167
0.14534578 -0.02395765 0.15356846 0.010023125 0.105833866 0.20031528 0.084801964 0.07530963
0.1416281 0.15077953 -0.1439816 0.040154368 0.16956988 -0.2886044 0.0037543878 0.121944696
-0.043890733 0.18671322 0.38986918 0.11371939 0.10589333 0.05977861 0.1104679 -0.054116514
0.55035603 0.11286976 -0.17485848 -0.29822233 0.050174717 0.5497289 -0.15772657 -0.1312991
0.05249688 0.30894294 0.49275133 0.0049141636 0.39119464 -0.13614182 0.107644685 0.36770016
-0.0102908565 0.2326756 0.21621498 -0.04672891 -0.12946618 -0.21304268 0.066654496 -0.13183096
0.2440177 0.13718694 -0.07813866 -0.02476275 0.108466 0.034967065 -0.21254098 0.18347503
0.00074485224 -0.21769369 0.17618155 0.10590339 -0.12489796 -0.1377226 0.2656808 -0.24433929
0.15028459 -0.19099742 0.27072406 -0.13940865 -0.20996077 -0.08840716 -0.042414848 0.22786571

functional_4_1/sequential_1/dense_2_1/BiasAdd/ReadVariableOp:0 f4 [32]
00000000: 0c06 813f 0247 833f 22fc 7cbf 780e acbc
00000010: d4c9 7bbd b933 f3bc adba 77bf 2571 863f
00000020: eaf0 78bf 7ffa 0ebd fa2f 9f3f f328 d1bc
00000030: 408b a33f 4067 debc 4c14 963f 83ed 84bf
00000040: b3f8 b13f 8dd2 1fbe 1890 aabd 7801 6ebf
00000050: e870 50bd 75fa 9a3f 2210 83bf ecec 333d
00000060: e444 7dbd c804 893f 3fb6 b83f 48f6 05bd
00000070: a1b7 9c3f cf15 74bf 2ff7 9b3f 74dd 7b3f
1.007997 1.0256045 -0.98822224 -0.021002993 -0.061471775 -0.02968775 -0.9676922 1.0503279
-0.97242606 -0.03490686 1.2436516 -0.025532221 1.2776871 -0.027148843 1.1724944 -1.0384983
1.3904022 -0.15607662 -0.08328265 -0.9297099 -0.050888926 1.2107683 -1.0239298 0.04392712
-0.061833277 1.0704584 1.4430617 -0.032705575 1.2243539 -0.9534578 1.218481 0.98384786

functional_4_1/sequential_1/dense_1_2/Cast/ReadVariableOp:0 f4 [64, 64]
00000000: 6c9f 80be 036b 2bbe 7b57 62be 61f7 b0bd
00000010: b3ca 1b3e a8b7 a63b e29e 3dbe 9e71 26be
00000020: 68b4 31be 1e40 523e 13d0 9c3c 56b9 763d
00000030: ef80 4cbe 8693 93be b147 1ebe 1037 a13e
00000040: 4965 3d3e d3e0 74be 0bd7 ae3d 3d8a 0dbe
00000050: 93a3 023e 0aaf a1bc ac28 cb3d 28e7 ae3d
00000060: 82f7 74bd a1bb 4ebe c89a b03d e112 e2bd
00000070: 396f 78be e6b5 183e b348 913d 283c 3bbe
00000080: 1129 433e 8b20 57be cba6 263d 8d4f 683e
00000090: c09f fc3c e53b 733d 80c2 d03d cbe3 223d
000000a0: 1cff 68be 3a65 753c 1972 153e cc2e ee3d
000000b0: 3ac8 a43d 5c8a 7cbe ec1e e9bb b3f1 573e
000000c0: e9fa 22bd 36a0 a6bd 00f2 28be 7caf 413d
000000d0: 9922 32be 45ad e0bc 26e5 103d 76f0 6bbd
000000e0: 8441 413d 41bd e33d c94a c23d 9dc4 2d3e
000000f0: d503 0f3e 005d 5f3c 32d7 dbba f30c cdbc
00000100: d961 47be e621 37be e8bc df3d 65bd cabd
00000110: d5b5 ab3e 56a8 f5bb eccb 1f3e ff71 37be
00000120: 8d9e 97bd e4ab 583e c5eb 453e 7cbe 983e
00000130: e5ae 8c3e c7a9 b73e 376b 0d3e 9d44 853e
00000140: 1356 ac3e 76d8 c63d 0c2a 9dbd 40e7 f83d
00000150: 855f 153e a979 4f3e e078 c0bd 8269 4a3e
00000160: a36a 6f3d 9e94 203e 2174 173d 2d2d 25be
00000170: b7e1 173d 0323 91bd 8530 7f3e f914 003d
00000180: ea80 853d 0bd9 51be 2aee bc3d 73cf 863e
00000190: d1a2 1c3e 8c36 8bbe efa0 d13d 7d00 6c3d
000001a0: 692d 223e 99a3 c73d 6e07 06be a337 81bd
000001b0: 1def ebbd a179 953c fec3 6abd a9ae 123e
000001c0: 91bf c6bd 74e3 613e 34c1 9dbd 26c0 28be
000001d0: 1409 433d 7cbe 2f3e 7952 a73e d7d5 713d
000001e0: 74aa 3abd 03ed 7b3e 24df 96bd 36f7 1a3e
000001f0: 9a32 a33e 4902 ae3d 3e38 283d f2ab 09bd
00000200: e019 083d ef41 25bd a30e b0bd 7b31 ceb9
00000210: 08cd 903e 247c 293e 12d9 1cbe 3dea 0a3e
00000220: 4c48 953e 3a21 903e ec9b c83d acf2 623e
00000230: 126f cc3d 99ee a43e 5f20 33bd 5202 e4bd
00000240: d826 603e 9eb6 fd3d 336b c33d a53d 943d
00000250: 05f8 223d d66b f73e da0c d3bd 9b89 89b9
00000260: b624 b9bd a3ec 293d 478c 89bd eca1 693d
00000270: 20c4 803e d49c 583e fff1 893d e795 383e
00000280: b98b cfbd 004e 713c 0f12 ce3e a776 a1bd
00000290: e9cb d2bd 8dcc 9fbe 98f9 e13e f56f 5e3d
000002a0: 3219 bf3d fcc9 b2ba 6c96 863e 8902 483c
000002b0: c454 103d 0b98 0c3e 2674 25be 6041 3d3c
000002c0: 7681 123e ae53 cc3e 87dc 193e f8d2 a73c
000002d0: 07ec 123e 502e a1bc e4ff 503e 8d17 823e
000002e0: b96a b13d 681f fb3d f319 4a3e 289a dcbd
000002f0: 793f 273e 167f 98bd 84db bbbe 4c0c bebd
00000300: 0905 693b 16f0 a73b 9372 263e 7f77 0d3e
00000310: 2cd1 043e 05bf 5a3c 5c05 f93d 419f 9c3b
00000320: 3cb9 4fbe 7772 8bbd f8e9 5abe eab1 f93c
00000330: c0fd 45bd b32e 73be 3256 f1bd 76c7 a03d
00000340: d15c 1a3e fe4d feb8 b009 b4bb 9f02 e2bd
00000350: db4e fe3d fc36 e43d d6cf 43bd 3db4 023e
00000360: c1cc 04be 5a46 143e 1a7b 8ebc df25 473e
00000370: 6935 993d aa12 6abe 1dff 823e bf8c 32be
00000380: ce91 193c 859a 14be 5862 cd3d ae52 6f3e
00000390: 4e3d 0dbe cff3 113e 5d3e e03d c64e f6bd
000003a0: 9fec 393e 39c9 6cbe 84cb f23d 0865 51be
000003b0: cc39 ecbd 41e6 ea3d cfd8 64be a47b 683d
000003c0: 1cc2 32be 01e4 083e 9d93 933c f865 15be
000003d0: c0f6 35bb 8cbc b53d 8f7b 8f3d 112a f6bd
000003e0: eb52 a53d 393f e83d b015 0f3e 6fc9 77bd
000003f0: 6e16 333d be8e 573d 44c7 a63d 450d 4bbe
-0.2512163 -0.1674004 -0.22103684 -0.08640934 0.15214042 0.0050878115 -0.1851764 -0.16254279
-0.17353976 0.20532271 0.019142186 0.060235344 -0.1997106 -0.2882349 -0.15457036 0.31487322
0.18495668 -0.23913889 0.0853711 -0.13822265 0.12757711 -0.019736785 0.09919867 0.08540183
-0.059806354 -0.20188762 0.08623272 -0.11038757 -0.24261178 0.14913139 0.070939444 -0.18284667
0.19058634 -0.21008508 0.04068641 0.22686596 0.030837893 0.05938329 0.10193348 0.03976802
-0.22753567 0.014977748 0.14594306 0.116300195 0.08046003 -0.24662155 -0.007114282 0.21088295
-0.039790068 -0.081360266 -0.16498566 0.047286496 -0.1739601 -0.027426371 0.035374783 -0.05760237
0.04718162 0.11120082 0.094869204 0.16969533 0.13966306 0.013633013 -0.0016772507 -0.025030589
-0.1947092 -0.17884025 0.10924703 -0.098994054 0.33537164 -0.007496874 0.15605134 -0.1791458
-0.07403288 0.21159321 0.1932822 0.29832828 0.27477184 0.35871717 0.1381043 0.2602891
0.3365942 0.097092554 -0.076740354 0.121534824 0.14587219 0.20261253 -0.09398055 0.1976681
0.058451306 0.15681693 0.036975984 -0.16130514 0.037080493 -0.07086756 0.24920852 0.03127
0.06518729 -0.20492952 0.09225114 0.26330146 0.15296485 -0.27190053 0.10235774 0.057617653
0.15837635 0.09748001 -0.13088772 -0.0630944 -0.115202166 0.018246474 -0.05731582 0.1432444
-0.09704507 0.22059423 -0.07702866 -0.16479549 0.04761608 0.17162508 0.3268011 0.059041824
-0.045572713 0.24602132 -0.073667794 0.15133366 0.31874543 0.084965296 0.04106926 -0.033611245
0.0332278 -0.040346082 -0.08596542 -0.00039328248 0.28281426 0.16551262 -0.15317181 0.13565917
0.2915672 0.2815035 0.09795365 0.22162884 0.099821225 0.32213286 -0.043732043 -0.11133255
0.21889818 0.12388347 0.09541931 0.0723832 0.03978731 0.4832446 -0.103051856 -0.000262332
-0.09040205 0.04148544 -0.06716209 0.057039186 0.25149632 0.21153575 0.0673561 0.18025933
-0.10134072 0.014728069 0.40248153 -0.07883959 -0.10292799 -0.31210747 0.44135737 0.05430599
0.093309775 -0.0013640518 0.26286638 0.012207636 0.03523709 0.13729875 -0.16157588 0.011551231
0.14307198 0.39907593 0.15025531 0.02048634 0.1434785 -0.019675404 0.20410115 0.25408593
0.08662934 0.1226185 0.19736461 -0.107715905 0.16332807 -0.07446115 -0.36690915 -0.09279689
0.003555598 0.005125056 0.16254644 0.13815115 0.12970418 0.013351207 0.12159225 0.0047797267
-0.20285505 -0.06808942 -0.21378314 0.030480344 -0.048337698 -0.23748283 -0.117840186 0.07850544
0.15074469 -0.00012126191 -0.005494319 -0.11035656 0.12417384 0.111433 -0.04780563 0.12764068
-0.12968732 0.14479962 -0.017392684 0.1944804 0.0748089 -0.22858682 0.2558526 -0.17436503
0.009373141 -0.1451207 0.10028523 0.23371384 -0.13792917 0.14253162 0.10949395 -0.120267436
0.1815667 -0.23123635 0.11855224 -0.20448697 -0.115344614 0.11469699 -0.22348331 0.056758538
-0.1745686 0.13368227 0.018014723 -0.14589679 -0.0027765483 0.08873853 0.07005989 -0.12019742
0.08072456 0.11340184 0.13973117 -0.060494836 0.043722562 0.052626364 0.08143476 -0.1982928

functional_4_1/sequential_1/dense_1_2/BiasAdd/ReadVariableOp:0 f4 [64]
00000000: 7af6 1bbd 27f4 aa3f 4455 623f 61ef 903e
00000010: d07e 87bf 8c93 933f 0337 773f 33c4 81bc
00000020: da0a ab3f 8cef 95bf 4e83 fa3d 77b2 013f
00000030: 37cb 873f dc27 8e3e db31 e5bb a7fa 31be
00000040: d835 59bf 1996 0c3f 4a30 90bf 096f 95bb
00000050: c25d 02bf e380 8b3f d170 91bd 5ca6 06bd
00000060: 754c 7ebc d73d c03f fe5c 993e bf1d c3bc
00000070: 5c27 053f 30c5 ae3f ab50 83bf ef9f 6abd
00000080: ea30 afbc 0000 0000 370b 8d3f c907 9dbf
00000090: 0000 0000 7b20 c53e 84cc ed3e 01d8 61bd
000000a0: a3b1 5fbf 8e7e a63f 8ded 93bf 6f0c bf3f
000000b0: 1acf b5bb 0978 983f 1f63 08bd 0000 0000
000000c0: be12 533d df17 9e3f 4bad 683f 0000 0000
000000d0: 0000 0000 aa43 a13f a912 243f 046f 423f
000000e0: fc78 9b3f 1454 9e3f 4f33 1dbc e8f7 75bf
000000f0: 3514 fd3e 9549 98bf 1bd4 8d3c b075 e83e
-0.038076855 1.3355759 0.88411355 0.28307632 -1.0585575 1.1529403 0.96568316 -0.015840625
1.3362687 -1.1713729 0.12232076 0.5066294 1.0608891 0.27764785 -0.0069944686 -0.17380773
-0.84847784 0.5491653 -1.1264737 -0.0045603556 -0.50924313 1.0898708 -0.07101596 -0.032873496
-0.015521158 1.5018872 0.2995376 -0.023817895 0.5201318 1.3653927 -1.0258993 -0.05728143
-0.021385629 0.0 1.1019047 -1.2268001 0.0 0.38501343 0.46445096 -0.055137638
-0.8738043 1.3007371 -1.155687 1.492567 -0.00554837 1.1911632 -0.033297654 0.0
0.051531546 1.2351035 0.90889424 0.0 0.0 1.2598774 0.64090973 0.75950646
1.2146297 1.2369409 -0.009594752 -0.960814 0.4942948 -1.1897455 0.017313054 0.45402288

functional_4_1/sequential_1/dense_1/Cast/ReadVariableOp:0 f4 [4, 64]
00000000: 5bb4 b5bd ecce 81bd 0cb4 89be e779 09be
00000010: 3da3 a93e 8f3b bdbe c774 123e 7025 82be
00000020: 97f2 19be c8a2 aa3d 8faf 213d d7cb 53be
00000030: bcdd 93be c3c4 07be 071a 773e e694 1e3e
00000040: c9b6 6fbd 0a15 98bd 673f 23be 9daf 17be
00000050: 8c1c 893e 293a 3dbd 6a9e 8cbe f26f cabd
00000060: 50d0 6bbd 6a6a 4d3e 9ddf d43e 86c2 6ebe
00000070: 3ba2 8cbe 5554 263e 8b2b c73c 6027 893c
00000080: 4e79 45bd 5bae c6bd 0245 81be 9b40 91be
00000090: 502b 57be 8143 c8bd cc20 5d3e 1b5e 0c3c
000000a0: a932 233d 04c0 8f3e 7874 b5bd b0da 54bd
000000b0: 5071 3f3d 412d 03be e307 a9bd c423 6fbe
000000c0: 784d 7b3d e48a 8dbe 2f92 4d3d f160 43be
000000d0: 18b4 713e 7527 f03e 08b5 663e 82b5 83be
000000e0: fe8f 2abe 499f 4a3e 1018 bb3c a7d9 9a3d
000000f0: 28b0 ec3d bbc7 3dbe 85e4 43be 7bac 033e
00000100: b606 883d e42c 68be 412d cb3d 0efe d1be
00000110: 02b8 bdbc 5e62 a33d 4e42 6ebe f929 763e
00000120: 6d87 1dbe ba44 233d 8751 18be 8e46 373e
00000130: 0400 f13d 1930 59be e51c 3b3c 65f3 3bbe
00000140: 7795 efbb 000a deba b572 ab3e fc67 6cbe
00000150: ae4f 2b3e 9c14 a4be 20a0 e13c 4a77 053e
00000160: b892 1cbd a2ed 8cbe c974 6e3e 9e3e 193e
00000170: fab3 9cbd acfd 34be fe43 5fbe 434b 6dbe
00000180: 5ab0 b0bd 848a f1be 40ad f33c e5d2 59be
00000190: 5698 bbbd b22d 9abe 1f17 61bd aad8 1d3d
000001a0: e8db 8fbe ce1d dbbd 0028 66bd 9ce1 a63d
000001b0: 0fd2 adbc 0fb8 913e 10d5 80bd e0f6 0ebc
000001c0: cc1a 2cbe 7fe9 ce3d e38a f73d de62 adbe
000001d0: 94d3 10be 56a0 e4bd 2476 54bd 9c3d 8cbe
000001e0: d9ca 5e3e 441d 823e d730 173e 0331 3c3d
000001f0: adf8 cabe f57b 46be dcb1 ebbd ddd5 7abe
00000200: 7472 263e 6cee 0e3d 2db2 f83d 7f37 913d
00000210: 6e39 493e 8b09 843e 08a2 1dbe a21d 743e
00000220: 19eb 5cbe 68cf d3bd 92f0 6c3e 3621 29bc
00000230: 1051 a6bd 7425 dd3d d1e6 753e f202 573d
00000240: b2a3 fcbc 40fe 833c 873c a33e e0f3 203c
00000250: a09d 113e f302 07bd 4c78 8dbe 653a 4abe
00000260: 24a5 a93d a612 21be 75b4 12bd d6cd ecbd
00000270: 8beb 0dbe 87f4 e43c 23e6 8ebe 50dd 463d
00000280: e678 703e 0e83 6b3e 301d 993d 8ad7 773e
00000290: 00d9 edbc dfd3 8b3e a9f8 003e 12f1 823d
000002a0: e6da 7b3d ba63 74be 3b7b aebe 20b1 54bc
000002b0: 7d3d 0d3e 468c e7bd 2424 873d 3069 abbc
000002c0: 1053 3b3d 85c1 78bd e842 4c3d 3cab 6cbe
000002d0: 070d 27be f46c 453d d7e9 90be c397 98bd
000002e0: d1fe 083e 4fc0 003e 15d9 babc f647 c2bd
000002f0: a721 4abe d664 a6bd 94b9 7dbe 0433 1bbe
00000300: 2947 c33d 0c70 81bc 612b 93be 01ec 813c
00000310: 4778 f2bd ae5b fcbc 1709 55bb 8e6c 0dbd
00000320: a3be 003e f0b2 423d d00b d73c 0bdf 3e3d
00000330: 8901 25be 782c 7bbe d9b9 48bc 56d6 593c
00000340: bc98 3c3e 2e70 70be 6170 3abe 9254 51be
00000350: 035f df3d a170 f83c 84d9 6bbd a624 4d3d
00000360: 6863 81be 485b f3bd 6f87 3a3d 1c03 46be
00000370: 54ec bbbd 6e30 463e f4c1 ab3c a439 8abe
00000380: 7a36 f23d 4cf6 63bb bcc5 85be 82dd 45bd
00000390: 855a 8dbe 302d 0bbe 650c 86bb 926c 91be
000003a0: cae6 b7bd b867 79be faf3 913d 9058 7abd
000003b0: 41f3 53be 57fc 38bd 381a 603e 4a58 86be
000003c0: 84ca 5bbe 5581 80bd 16af 9bbc 955c 2e3e
000003d0: d778 013e 629e 1dbd 2918 56be 1212 783d
000003e0: 78af adbe 84a6 be3d 769b 21bd 6f05 983c
000003f0: 4eac da3d 4cc4 723d fea7 25be 7c3c 7a3b
-0.08872291 -0.06338295 -0.26895177 -0.13425408 0.33132353 -0.36959502 0.1430236 -0.25419188
-0.15033947 0.08331829 0.039474066 -0.20683227 -0.28880107 -0.13258652 0.24131022 0.15486488
-0.058523927 -0.07425888 -0.15942155 -0.14813085 0.26779592 -0.046198044 -0.2746461 -0.09884633
-0.05757171 0.20060125 0.41576853 -0.23316392 -0.27467522 0.16243108 0.024312755 0.016742408
-0.04821139 -0.097012244 -0.2524796 -0.28369603 -0.21012616 -0.097785 0.21594542 0.008567358
0.039843235 0.28076184 -0.08860105 -0.05196637 0.046738923 -0.12810232 -0.082534574 -0.23353487
0.061353177 -0.27645028 0.05018824 -0.19079949 0.23603857 0.46905103 0.22529995 -0.25724417
-0.16656491 0.19787325 0.022838622 0.07561045 0.11557037 -0.18533222 -0.19130142 0.12858765
0.06641905 -0.22673374 0.09920741 -0.4101414 -0.02315903 0.079777464 -0.2326748 0.24039449
-0.15383692 0.039860465 -0.1487485 0.17898008 0.11767581 -0.21209754 0.011420463 -0.18354566
-0.007311519 -0.0016940236 0.33485952 -0.23086542 0.16729614 -0.32046974 0.027542174 0.13033786
-0.03822586 -0.2752505 0.23286738 0.14965293 -0.07651515 -0.17674893 -0.2180328 -0.23173241
-0.086273864 -0.47175992 0.029745698 -0.21271856 -0.09159915 -0.30112988 -0.05495369 0.038536705
-0.28097463 -0.10699044 -0.05619049 0.081485 -0.021218328 0.28460738 -0.062906384 -0.008725852
-0.16807097 0.101031296 0.120870374 -0.33864492 -0.1414321 -0.11163394 -0.05187048 -0.27390754
0.21757068 0.25412953 0.14764725 0.04594518 -0.3964285 -0.19383223 -0.11508533 -0.24495645
0.16254598 0.034895346 0.12143359 0.07090663 0.19650814 0.2578853 -0.15393841 0.23839429
-0.21574058 -0.10342294 0.23138645 -0.0103228595 -0.0812093 0.10798159 0.2401383 0.052493043
-0.030839775 0.016112447 0.31882116 0.009823769 0.14220285 -0.032961797 -0.27630842 -0.19748838
0.08283451 -0.1572977 -0.03581663 -0.115626976 -0.13859384 0.027948631 -0.27909955 0.048550904
0.23483619 0.22999212 0.0747627 0.24203315 -0.029034138 0.27310082 0.12594856 0.06393637
0.061488055 -0.23866168 -0.34078392 -0.012981683 0.13792987 -0.11306052 0.0659869 -0.02092418
0.04573351 -0.06073143 0.049868494 -0.23112196 -0.16313563 0.04819961 -0.28303406 -0.07450821
0.13378455 0.1257336 -0.02280859 -0.09486382 -0.197394 -0.08124702 -0.24777824 -0.1515618
0.09535057 -0.015800498 -0.28744033 0.015859606 -0.11839347 -0.030805435 -0.0032506639 -0.034527354
0.12572722 0.04753393 0.02625075 0.04659943 -0.16113867 -0.24528682 -0.012251341 0.013295731
0.18417639 -0.23480293 -0.18206932 -0.20442417 0.10906794 0.030327143 -0.057580486 0.05008378
-0.25271153 -0.11882645 0.045539316 -0.19337124 -0.091759354 0.19354412 0.020966507 -0.269971
0.11826797 -0.0034784256 -0.26127422 -0.04830695 -0.27608123 -0.13591456 -0.004090833 -0.28403145
-0.089795664 -0.24355972 0.07126613 -0.061119616 -0.20698263 -0.045162525 0.21885002 -0.26239234
-0.21463972 -0.06274668 -0.019004386 0.17027505 0.12643753 -0.038481124 -0.20907654 0.06056411
-0.33922935 0.09309104 -0.0394549 0.018557278 0.10677396 0.059269235 -0.16177365 0.0038183024

functional_4_1/sequential_1/dense_1/BiasAdd/ReadVariableOp:0 f4 [64]
00000000: 863b 9cbf 8b9c ba3e ad53 bd3e 13d6 b23d
00000010: 2476 f9bc 4321 8ebf de5e 99bb 127a a23f
00000020: dc5e b53f f7bb c83f 3197 c53e 7215 c0bf
00000030: 0000 0000 0000 0000 d91d b83f 109a a43f
00000040: 39e4 a5bf 0000 0000 54e3 dabc 0000 0000
00000050: 154c bdbf b031 843f 0000 0000 0d50 c33d
00000060: 0000 0000 0000 0000 f3c1 afbf 0000 0000
00000070: 0000 0000 6d8e ac3f 9178 4fbd 0000 0000
00000080: 81d4 acbf 9e7d ae3e 0000 0000 1685 a63e
00000090: 0000 0000 23f1 f6bc a68f b43f 93bd ce3e
000000a0: c9e5 163e 0000 0000 3fc1 80bf 0000 0000
000000b0: 6305 8a3e 7545 aa3e a332 aabf 0000 0000
000000c0: 0000 0000 2ed4 96bc 6b9d d03f 0021 a83f
000000d0: a6d5 ab3f 55be de3c 0000 0000 12ed ab3f
000000e0: 6fe6 b03e 5bad babf 5b74 5c3f 99fc 523f
000000f0: 8646 973f d9e2 a33f 0000 0000 558d cb3e
-1.2205665 0.36447558 0.36977902 0.08732238 -0.030451842 -1.1103901 -0.0046804985 1.2693503
1.4169574 1.5682362 0.38591912 -1.5006545 0.0 0.0 1.4384109 1.2859516
-1.2960273 0.0 -0.026719727 0.0 -1.4788843 1.0327663 0.0 0.09536753
0.0 0.0 -1.3731064 0.0 0.0 1.3480965 -0.05065209 0.0
-1.3502351 0.34080213 0.0 0.32523412 0.0 -0.03014428 1.4106338 0.4037901
0.14736094 0.0 -1.0058974 0.0 0.26957235 0.33256117 -1.3296703 0.0
0.0 -0.018411722 1.629804 1.3135071 1.3424575 0.027190367 0.0 1.3431723
0.34550807 -1.4584154 0.86115044 0.82416683 1.1818397 1.2803603 0.0 0.39756265
